legacy/dqn_solver_general.pth (torch, 908484 bytes, 8 tensors)

conv1.weight f4 [32, 8, 3, 3]
000000 c1 75 ca 3d 53 4b f5 3e b7 29 05 40 37 bd 3e 3f
       0.09885741 0.4790903 2.080671 0.7450747
000010 1b 2c e4 3f 88 19 c5 3e 9c 5d 10 c0 93 96 35 be
       1.782596 0.3849604 -2.2557135 -0.17733221
000020 5a 7f 75 3e c0 38 3d c0 80 b3 15 bf a4 74 81 c0
       0.23974362 -2.9565887 -0.5847702 -4.0454884
000030 ef 7f 03 3e 36 27 35 3e 42 d6 13 be bc f2 a6 3f
       0.12841772 0.17690739 -0.14437202 1.3042827
000040 88 3b 01 c0 fe c1 1b be e4 5c 34 bf aa 12 a0 c0
       -2.0192585 -0.15210721 -0.7045424 -5.0022783
000050 c3 be ef bf 35 6f d2 bf 54 90 23 40 d3 f6 fb be
       -1.8730091 -1.6440188 2.555684 -0.4921175
000060 c0 a8 5b 40 c1 af 7d bf a5 35 a9 3f 95 9a 47 40
       3.4321747 -0.99096304 1.3219496 3.11881
000070 5e 82 d6 3f 89 e3 7b 40 03 65 3a bf e1 f0 fa 3f
       1.6758535 3.9357626 -0.7281038 1.960476
000080 1d 59 63 bf 13 9c a7 bf c4 e1 0c 40 a5 65 ee 3f
       -0.8880785 -1.3094505 2.2012796 1.862477
000090 a3 54 e6 3d 76 34 53 3f 52 32 46 bf 48 c2 d5 bd
       0.11246612 0.82501924 -0.7742053 -0.10437447
0000a0 e2 03 9e bf 07 4d 45 be 92 60 95 bf 52 e6 92 be
       -1.2344935 -0.19267665 -1.1670096 -0.28691345
0000b0 11 76 a4 bf ad c5 c1 3f 76 67 31 be cb e0 04 40
       -1.2848531 1.5138451 -0.17324623 2.0762203
0000c0 4a f9 47 40 62 fb 81 bf fc 0d 0d bf 83 a1 9b 3f
       3.1245904 -1.0154841 -0.55099463 1.2158664
0000d0 59 7e f8 3e 83 b0 43 be 52 e6 af bf b2 96 8c 3d
       0.48533896 -0.19110303 -1.3742163 0.0686468
0000e0 a5 c0 e8 3e 18 6a c7 be 17 17 e3 3f 52 f3 4d 3f
       0.45459476 -0.3894813 1.7741421 0.804494
0000f0 92 d0 9c bd 24 09 db bf a2 21 86 bf 6c af 42 3e
       -0.07656969 -1.7112164 -1.0479014 0.1901223
000100 e8 58 4f 3f 6f 5b 2a bf 94 50 5d bd f2 e0 9f bf
       0.80995035 -0.66545767 -0.054031923 -1.2490523
000110 57 90 68 be 10 dc 83 bf 46 8b 97 be cf db a1 bf
       -0.22711311 -1.0301533 -0.29598445 -1.2645205
000120 c5 d6 fb 3f 9c c5 6b be 98 83 01 bf d6 d6 8b be
       1.9674917 -0.230246 -0.5059142 -0.27312344
000130 f6 f5 b0 bf 99 2c 19 3e fb 9e 3b bf f0 00 a2 3f
       -1.3825061 0.14958419 -0.7328946 1.2656536
000140 04 87 a2 3e 88 77 5c bf e9 97 6b 3f da 91 96 3f
       0.31743634 -0.8611989 0.9202867 1.176326
000150 36 c7 fa bd 98 73 41 3d 6d 09 16 c0 77 b9 2b 3f
       -0.12245028 0.04722938 -2.3443253 0.6707987
000160 96 0d a6 3f d9 a8 18 c0 00 6d e6 3d 2f 79 ab 40
       1.2972896 -2.3853056 0.11251259 5.358543
000170 cd 37 04 c0 7e a2 ba 3f dd 2b 7c 3f 4e b4 fd 3f
       -2.0659058 1.4580839 0.9850443 1.982065
000180 1c 82 b0 bf 8f 8a 9c 3f 89 18 21 40 0f a4 0a 40
       -1.3789706 1.2229785 2.5171225 2.1662633
000190 60 96 e1 bf de f7 67 bf 65 b2 04 c0 e6 cb 23 c0
       -1.7624016 -0.9061259 -2.0733883 -2.55932
0001a0 0e 98 31 bf d0 22 e2 bf 5e d4 0f bf 50 24 90 3f
       -0.6937264 -1.7666874 -0.5618342 1.1261082
0001b0 1a f2 21 bf c1 fa ac be ec da 0b 40 bf 28 15 bf
       -0.6326004 -0.3378506 2.185237 -0.582653
0001c0 66 fb e6 3f eb 95 12 40 f0 49 40 bf 93 98 7c bf
       1.8045471 2.2904003 -0.7511282 -0.9867031
0001d0 79 72 7b bf 95 e2 1c be 2b 85 57 bf 51 f9 32 c0
       -0.98221546 -0.15320809 -0.84187573 -2.796467
0001e0 a4 ca dd bf 43 a1 01 c0 db 2c a7 3f e8 fe 18 c0
       -1.7327466 -2.0254676 1.3060564 -2.3905582
0001f0 5b 42 4e bf d0 bc c1 bf 23 3c 46 be f0 5e 27 bf
       -0.8057 -1.5135746 -0.19358878 -0.6537924
000200 9b 61 22 40 f1 ea a0 bf 75 83 e3 be cd 2b 75 be
       2.5372074 -1.2571698 -0.4443623 -0.2394249
000210 6f 9d b3 3f e6 fd 21 c0 91 81 33 c0 62 ed 22 bf
       1.403242 -2.5311217 -2.804783 -0.6364347
000220 a9 5f cf be 4a 16 12 40 3c e0 0c bf af 5f ee 3f
       -0.4050267 2.2826104 -0.55029655 1.862295
000230 ab 3a 0c 40 75 fc 2a bf b3 99 77 bf 73 11 6f bf
       2.1910808 -0.6679147 -0.967189 -0.93386
000240 cd 3a 56 3f a5 8c bd bf d8 d8 da 3e d5 7a 85 be
       0.8368347 -1.4808546 0.42743564 -0.26070276
000250 f7 10 b7 bf b0 92 54 bf ac 2b 40 c0 33 e2 87 bf
       -1.4302052 -0.8303633 -3.0026655 -1.0615906
000260 17 45 d0 3e 91 83 12 c0 e3 b2 51 3f 31 ba ac 3f
       0.4067771 -2.2892802 0.81913584 1.3494321
000270 2c d7 3e be 6b 9a 17 3f a2 fc af be ca 2e 87 3f
       -0.18636769 0.5922 -0.3437243 1.0561154
000280 69 63 0e be ed 58 50 3f 71 8c 12 c0 7f a3 0f bf
       -0.1390511 0.8138569 -2.2898219 -0.5610885
000290 a1 5f 1e 3e 7c f1 a2 be 3e 77 e2 bf f8 67 7e bf
       0.15466167 -0.31824863 -1.769264 -0.99377394
0002a0 ae 8a bf 3f 91 95 92 3e e0 49 07 c0 2e 55 3c 3f
       1.4964197 0.28629735 -2.113884 0.73567474
0002b0 91 f9 19 c0 af 29 4b 3f e7 e7 e5 bf 77 15 49 c0
       -2.4058573 0.7936048 -1.7961396 -3.141935
0002c0 fb b1 eb be bf 08 03 40 e9 6c a6 3f c8 bf 86 40
       -0.46034226 2.0474088 1.3001987 4.210911
0002d0 ac 54 7b bf c9 6c 28 bf 09 e3 f3 be bd c8 0c bf
       -0.98176074 -0.6579099 -0.47634152 -0.549938
0002e0 74 98 23 40 7c c8 27 40 2d c0 fc be 68 96 e9 bf
       2.55618 2.6216116 -0.49365368 -1.8249025
0002f0 71 9a 4a bf 20 d8 64 3c 37 52 e5 be ce c8 fd be
       -0.7914191 0.013967544 -0.44789287 -0.49567264
000300 23 15 30 3f ba 87 01 bf 39 f5 8a 40 72 f6 d0 bf
       0.6878225 -0.5059773 4.3424344 -1.6325209
000310 ec 91 19 3e 2a 87 a9 bf 9f db 60 3f 4a 48 d5 bf
       0.14997071 -1.3244374 0.87835115 -1.6662686
000320 0a d8 6b bf 0f b3 8e 3f f4 0e fe 3c a6 20 81 c0
       -0.92126524 1.1148394 0.03101299 -4.0352354
000330 86 b4 ed 3f ae 2b bd bf ac 58 a6 bf ef d7 85 bf
       1.8570716 -1.4778955 -1.299581 -1.0456523
000340 0f e5 52 bf 34 36 cc be b0 c2 cc be 32 18 2d 40
       -0.82380766 -0.39885104 -0.39992285 2.7046018
000350 bd c4 27 40 13 d2 29 bf 1f c2 e8 bf 2a e6 6e bf
       2.621383 -0.6633617 -1.8184241 -0.9331995
000360 a8 f9 ad 3f ab cd ee bd 83 25 9f 3e 42 fe 6c 3f
       1.3591814 -0.11660322 0.31083307 0.92575467
000370 2b 8b 3f c0 f8 ff 4e 3f d2 61 ad be 11 f1 b3 be
       -2.9928691 0.8085933 -0.33863693 -0.35144857
000380 cd f8 03 40 3b 1a dc bf ba bc 85 c0 88 de fe 3d
       2.0620606 -1.7195505 -4.179288 0.12444788
000390 8d d7 9c bf 0c f5 73 3f eb 2e 88 c0 58 e7 34 3e
       -1.2253281 0.95295787 -4.2557273 0.17666376
0003a0 9c 2c 89 c0 0f 01 85 3f 48 41 c0 be f6 5f 44 40
       -4.2866955 1.0390948 -0.37549806 3.068357
0003b0 81 b6 a5 bf cd e1 05 bf 0d 30 77 bf ea 7b 04 40
       -1.2946321 -0.5229767 -0.96557695 2.070063
0003c0 23 46 ba 3f 8f a9 42 c0 b2 ed 12 c0 27 0e 7b bf
       1.4552654 -3.041599 -2.2957578 -0.9806847
0003d0 fa 26 0c bf 91 9b 43 c0 40 df af 3f 31 94 08 c0
       -0.54746974 -3.05637 1.3740005 -2.134045
0003e0 eb be 20 40 28 78 34 c0 69 de c2 3f e2 e1 9c bf
       2.5116527 -2.8198338 1.5224124 -1.2256434
0003f0 9c ec e6 be 39 08 6b bf e1 6b 04 3d e5 32 20 be
       -0.45102394 -0.9180942 0.032329444 -0.15644415

conv1.bias f4 [32]
000000 9b d7 f2 be 39 32 1b c0 fc 7f 22 c0 c7 56 1c c0
       -0.4743012 -2.4249403 -2.5390615 -2.4427965
000010 ff f9 45 c0 2e ef bd bf c7 82 81 c0 34 84 1e c0
       -3.0933836 -1.4838617 -4.047214 -2.476819
000020 f3 e8 04 c0 9c cf 54 c0 0a 72 19 c0 9d de 0a c0
       -2.076718 -3.3251715 -2.3975854 -2.1698372
000030 5d 24 21 c0 bb ae 86 bf 2f 52 1d c0 9d b1 b2 bf
       -2.5178444 -1.0522074 -2.458141 -1.3960453
000040 9e 40 16 c0 ee 30 0e c0 aa c2 84 bf de 5b c8 bf
       -2.347694 -2.2217364 -1.0371907 -1.5653036
000050 9b 8f d2 bf 11 c5 a1 bf 7e ab 11 c0 e0 86 13 c0
       -1.6450075 -1.2638265 -2.276092 -2.305107
000060 ad 02 1b c0 4d a3 25 c0 ef a9 a8 bf 3f 8f 67 be
       -2.4220383 -2.588092 -1.317686 -0.22613238
000070 46 d5 e0 bf 36 99 81 c0 11 c9 9d bf fe d0 1e c0
       -1.7565086 -4.0499525 -1.2326986 -2.4815059

conv2.weight f4 [64, 32, 3, 3]
000000 e0 ba e8 bf 4f 25 04 bf 45 fb 02 bf 5c 53 50 bf
       -1.818203 -0.5161943 -0.51164657 -0.81377196
000010 25 b1 98 bf 79 b5 7b c0 5f 07 80 3d 3a 76 d3 3f
       -1.192906 -3.9329512 0.06251406 1.6520455
000020 59 a4 d5 3e 6b b3 c8 be a4 e8 bd be 77 89 c0 c0
       0.4172695 -0.39199385 -0.37091553 -6.0167804
000030 97 e3 c0 bf 8b e7 5d c0 a2 d5 7e bf 51 fe d4 3e
       -1.5069455 -3.4672573 -0.9954473 0.41600278
000040 45 50 95 c0 bc 59 53 bf 56 b5 8f 3f 15 5c bc bf
       -4.6660485 -0.825588 1.1227214 -1.4715601
000050 b3 81 1f c0 d8 76 75 be bd 49 1a c0 f3 17 fa 3e
       -2.4922912 -0.23971117 -2.4107506 0.48846397
000060 2c e4 b2 c0 90 90 8d c0 1b 58 37 c0 d4 22 88 3f
       -5.590353 -4.423897 -2.8647525 1.0635629
000070 58 6b 9d c0 4a fc d0 3f 94 4b 93 c0 9e dd 2d be
       -4.9193535 1.6326993 -4.602976 -0.16979071
000080 f3 e3 1c 3e 70 9d 5d 40 60 b3 1b c0 5a 7f c7 40
       0.1532133 3.4627342 -2.4328232 6.234296
000090 8b bb 0f 40 5c d0 3b 40 e5 ee 98 3e 1b 26 a1 c0
       2.2458217 2.9345922 0.29869762 -5.0359015
0000a0 68 50 f2 be ce cc 22 3f cc d9 23 3f 9e e1 82 3f
       -0.4732697 0.6359376 0.64004207 1.0225103
0000b0 06 1c ef bf 5d dc f4 bf 16 47 0b 3f db 34 b2 be
       -1.8680427 -1.912975 0.54405344 -0.3480595
0000c0 d0 3c 10 c0 24 f7 de be 67 94 b9 bf 3d 4e 1f c0
       -2.2537117 -0.43547928 -1.4498414 -2.4891503
0000d0 f0 11 ba c0 9d 5a af c0 ff a8 f3 3f b5 5d 2e c0
       -5.8146896 -5.479811 1.9035949 -2.7244694
0000e0 51 15 10 c0 ce b1 2c 3f 9a d4 fe 3e d1 a8 1a 40
       -2.251301 0.6745881 0.49771577 2.4165537
0000f0 b5 a7 e9 bf 0e c9 a7 bf 6c a7 00 40 61 65 fb 3f
       -1.8254305 -1.3108232 2.0102186 1.9640313
000100 d9 73 22 40 89 7d ae 3f a1 31 99 3f fc 64 e7 bf
       2.5383208 1.363206 1.196827 -1.8077693
000110 1c 49 76 3f 9b 5c 44 3e 51 f5 61 c0 9a 41 1c c0
       0.96205306 0.19175951 -3.530598 -2.441504
000120 8e fe 42 40 11 de c1 3f 42 9b 0a c0 b5 0d e0 bf
       3.0467868 1.5145894 -2.1657262 -1.7504183
000130 56 d2 59 40 26 b0 c2 c0 ca 3f c7 bf ad 36 90 c0
       3.403463 -6.0840025 -1.5566342 -4.5066743
000140 fc 21 7d 40 27 c4 c6 c0 54 6f 69 40 eb ed 92 c0
       3.9551992 -6.2114444 3.64742 -4.5915427
000150 96 f8 98 bf 42 65 19 40 d6 5c b9 bf ea 8a c7 bf
       -1.1950862 2.3968053 -1.4481456 -1.5589268
000160 2e f0 99 bd 9e 67 a2 40 27 d7 fd 3e c9 ab 97 3e
       -0.07516514 5.0751486 0.4957821 0.2962325
000170 d1 47 25 40 17 a2 85 c0 d2 78 06 c0 5e 89 c9 bd
       2.5825083 -4.1760364 -2.1011243 -0.09840654
000180 20 46 1b bf d3 b4 f4 3e 89 9f a4 be db 08 9e bf
       -0.6065388 0.47794208 -0.32152966 -1.2346452
000190 52 e2 9a bf 6f 72 16 bf 6a a7 01 bf 3f 70 ac 3f
       -1.2100317 -0.5876836 -0.5064608 1.3471755
0001a0 37 91 72 c0 3b 57 e8 c0 db 15 5a 40 38 17 53 bf
       -3.7901132 -7.2606483 3.407584 -0.82457304
0001b0 49 dc 1c c0 02 35 8e c0 d7 ff 46 40 bd e3 41 bf
       -2.4509451 -4.4439707 3.1093652 -0.75738126
0001c0 0c dd 26 c0 57 c3 f9 bf af 77 8c c0 ca 83 9a 3f
       -2.6072416 -1.9512738 -4.38961 1.2071469
0001d0 3a 79 cb 3f 9b 4f dc be 99 a5 cd 3e 79 a8 cf 3d
       1.589637 -0.43029484 0.40165403 0.101395555
0001e0 8f 8f 3f be 4d 84 d7 bd 5a 08 23 bf 53 84 0b 3f
       -0.18707107 -0.10523281 -0.6368462 0.54498786
0001f0 1a ba c1 be 1f 0d b7 be 05 48 fe bf e6 30 2e 40
       -0.37837297 -0.35752198 -1.9865729 2.7217345
000200 bd a5 24 c0 0d f0 44 3f 49 5b bf bf 44 c0 6c 3f
       -2.5726159 0.7692879 -1.4949733 0.92480874
000210 24 01 d9 3e 98 d2 ed 3f e4 8d 44 40 1f 5a f8 bf
       0.42383683 1.8579893 3.0711603 -1.9402503
000220 07 c9 e4 bf 11 86 8a be 2b 07 08 bf f7 e8 89 c0
       -1.7873849 -0.2705541 -0.5313594 -4.309688
000230 65 cd 46 c0 51 49 c2 bf 6a 81 89 3f bf b6 08 c0
       -3.1062863 -1.5178624 1.0742619 -2.136154
000240 7d dc 14 40 dc 79 18 40 e9 ee 4d 3f 02 b9 03 c0
       2.3259575 2.3824377 0.8044267 -2.058167
000250 e1 54 25 3e 33 52 79 3f 63 f1 8a bf 1f eb 8a bf
       0.1614566 0.9739105 -1.0854915 -1.0853003
000260 9b d0 73 3d 67 a0 79 c0 74 5d 2e bf f1 79 09 bf
       0.059525114 -3.9004152 -0.6811135 -0.5370169
000270 f9 1f 5c c0 f2 81 e6 bf af 9c 05 c0 3c 36 06 c0
       -3.4394515 -1.8008406 -2.0876882 -2.0970602
000280 ab 35 ce 3f 87 62 b4 bf 84 4b 3e 40 d2 fa fa bf
       1.6110128 -1.4092568 2.973359 -1.9607794
000290 f7 a7 d2 3f 64 db bd 3f f6 c7 b2 c0 b6 c6 2a be
       1.6457509 1.4832578 -5.5869093 -0.16677365
0002a0 2c ae ad c0 ca 70 5b 3e 8f 26 bf bf fe b5 da 3f
       -5.427511 0.21429744 -1.4933642 1.708679
0002b0 eb a4 14 40 af ce 2a c0 f6 89 51 c0 52 1b ac bf
       2.3225658 -2.668865 -3.2740455 -1.3445837
0002c0 ef 63 2c c0 5b 9e 90 bf cb ff e4 bf 7c f2 dc be
       -2.6935995 -1.1298326 -1.7890562 -0.4315375
0002d0 74 79 13 3f 16 c8 b4 3e 8d 47 5d c0 cb eb e9 3f
       0.576072 0.35308903 -3.457492 1.8275083
0002e0 db 3c 74 3f 2a 35 74 c0 45 77 3f c0 f2 6b 49 bf
       0.9540536 -3.8157449 -2.9916546 -0.78680336
0002f0 a8 d3 d4 bf 52 0c 8e 3e 77 73 7a be 46 35 39 bf
       -1.6627092 0.27743775 -0.24458109 -0.72346914
000300 11 81 bf bf ab 44 91 be d0 11 99 bf 6b b0 2c 3e
       -1.4961263 -0.28372702 -1.1958561 0.16864173
000310 29 d9 55 be fd 77 04 bf b3 7c e0 bd c5 69 cb bf
       -0.20883621 -0.5174559 -0.109612845 -1.5891653
000320 63 c2 16 40 74 54 17 40 e4 ce 88 40 4d 3f a2 bf
       2.3556144 2.3645296 4.275255 -1.2675568
000330 7b 29 63 bf 08 2f 6b 3f 00 28 20 40 f4 15 82 bf
       -0.8873517 0.9186864 2.5024414 -1.016295
000340 c5 40 b7 bf 73 28 7f 3e 8c de 3a bf 5a c9 88 bc
       -1.4316641 0.24917774 -0.7299583 -0.016697574
000350 4b 6f aa c0 47 dd 1d bf 37 d8 91 3f e6 32 ed 3f
       -5.3260856 -0.6166577 1.1394109 1.8531158
000360 3e 75 a7 bd 4a a0 a0 3f 53 47 18 40 bf c6 aa be
       -0.08176659 1.2548916 2.3793533 -0.33354756
000370 b6 09 45 c0 46 5d 2a 3f 7c cc 67 be 85 d8 95 3f
       -3.0787177 0.66548574 -0.22636598 1.1706702
000380 83 e9 4e be 0a a9 65 be 2c 42 37 40 db 03 29 3e
       -0.20206265 -0.22427765 2.8634138 0.16505377
000390 21 29 b1 3f 46 22 3e bf e9 b0 f9 bf 81 24 c0 3e
       1.3840677 -0.7427105 -1.9507114 0.3752785
0003a0 48 11 56 c0 63 48 33 bf ff 9d 38 3f 0d a1 25 be
       -3.3448048 -0.7003233 0.7211608 -0.16174717
0003b0 61 a1 f1 3e 9f b1 76 3f af 8d db 3e cf 9c be 3d
       0.47193435 0.9636478 0.42881534 0.093072526
0003c0 4e 49 95 bf 6c 60 78 3f 5c 2c 8c bf 77 94 cb bd
       -1.1662996 0.9702213 -1.0951037 -0.09940427
0003d0 21 5c 50 be a6 a1 e3 bd 37 36 f6 3e fb 77 2e bf
       -0.20347644 -0.11114816 0.48088238 -0.68151826
0003e0 85 a6 16 bf 9f df 2e 3f 8f 9f 31 3e c7 a0 00 bf
       -0.5884784 0.6830997 0.17346023 -0.50245327
0003f0 cc a9 37 bf d4 c2 51 40 29 b5 00 3f d0 76 7b c0
       -0.71743464 3.2775164 0.5027643 -3.9291267

conv2.bias f4 [64]
000000 24 30 67 c0 bf 46 47 c0 69 e9 8a c0 61 43 43 40
       -3.6123133 -3.113693 -4.3409925 3.0509875
000010 04 a2 75 c0 9d 26 30 3f d8 67 33 c0 7b fe 81 c0
       -3.8380136 0.6880892 -2.8032131 -4.0623145
000020 c2 0e 32 c0 f5 d7 88 c0 71 6d 91 bf 24 4f c4 bf
       -2.7821507 -4.276362 -1.1361524 -1.5336652
000030 a6 46 c9 3f b9 a6 00 c0 aa b7 6c c0 f8 c8 85 bf
       1.5724685 -2.010176 -3.69871 -1.0451956
000040 bf 06 99 c0 6f 22 9d 3d b4 07 c7 bf 54 65 c9 40
       -4.7820735 0.07672583 -1.5549226 6.293619
000050 30 14 8d c0 5e 21 9a c0 0d 4c 9c c0 6d 0b 9d c0
       -4.4087143 -4.816573 -4.8842835 -4.9076447
000060 8d 60 a3 bf 95 2d 8c c0 c3 93 86 c0 2a 97 68 c0
       -1.276384 -4.380564 -4.2055373 -3.6342263
000070 9d a5 e3 be 92 4d 74 c0 54 48 50 c0 19 2d c2 bf
       -0.4446229 -3.8172345 -3.2544146 -1.5170013
000080 ca 7e 88 bf 94 f3 13 40 35 83 71 c0 33 cc b2 c0
       -1.0663693 2.3117418 -3.7736332 -5.5874267
000090 e6 06 8e 3e a2 70 a4 bf fe 07 0e c0 ee 27 94 be
       0.27739638 -1.2846873 -2.2192378 -0.28936714
0000a0 dd 13 60 c0 9e 0c 07 c0 26 99 68 bf 56 e1 7a c0
       -3.5012124 -2.110145 -0.90858686 -3.9200034
0000b0 0f e6 90 c0 4a ef 98 c0 ac 2f 9f c0 c2 97 1c 3f
       -4.5280833 -4.77921 -4.9745693 0.61169064
0000c0 f4 3f 03 c0 0e 28 34 c0 71 e4 0e c0 7f 7b 4a 3f
       -2.0507784 -2.8149447 -2.232693 0.7909469
0000d0 cd 3b 94 c0 f3 d8 eb 3a 05 c4 8b c0 60 dd b5 c0
       -4.6323 0.0017993733 -4.367678 -5.6832733
0000e0 89 29 69 c0 d1 13 be c0 89 90 e8 bf 98 d5 b7 be
       -3.64316 -5.939919 -1.8169109 -0.35905147
0000f0 1c 2c 62 c0 56 09 0c c0 42 ce 48 c0 c3 e4 9d c0
       -3.5339422 -2.1880698 -3.137589 -4.934175

fc1.weight f4 [128, 1600]
000000 28 a0 19 be 61 a7 a1 bc 79 75 c2 be 09 5e 9a bd
       -0.15002501 -0.019733133 -0.3798025 -0.07537467
000010 07 a1 a7 be c8 bd 40 3d 23 47 88 3d 46 2e 01 be
       -0.32740042 0.04705599 0.06654193 -0.12615308
000020 2c d5 6f be bd 24 98 be 6c 0c 89 be b8 b0 56 3e
       -0.23421162 -0.2971553 -0.2676729 0.2096585
000030 fb 08 25 be c6 b5 8a be 67 5b 9c bd 8c 63 35 be
       -0.16116707 -0.27091807 -0.07634621 -0.17713755
000040 99 4f 8d 3d bf cb c9 3e 8d 43 84 be 17 74 9c be
       0.06899948 0.39413258 -0.25832787 -0.3055732
000050 b1 8f 04 3e 76 b9 01 3f 60 71 57 3d 0e 30 5a be
       0.12945439 0.50673616 0.052598357 -0.21307394
000060 ee 3c 15 be 09 3e d9 3d c9 d4 88 be d5 47 5e be
       -0.14574024 0.106075354 -0.26724842 -0.21707089
000070 af 5e 00 bf 33 c2 3c be 34 54 7e be db 33 83 be
       -0.50144476 -0.18433456 -0.24836808 -0.256255
000080 bc d1 04 be 55 c2 13 bf 90 fd 9e bc d4 a9 7b be
       -0.12970632 -0.577184 -0.019408017 -0.24576503
000090 02 dd a5 be 5c 56 3a bc 33 c7 00 bf 1d 7f 46 3c
       -0.32395178 -0.011373129 -0.50303954 0.012115267
0000a0 e9 bf 52 3f 3a 3d de bb 2d 8b 41 be 1f d3 6c be
       0.8232408 -0.006782201 -0.18900748 -0.23127411
0000b0 47 2b 2e bd d0 6c 6c 3e da d4 ad 3c 07 6a 8e bd
       -0.04252174 0.23088384 0.02121966 -0.06953817
0000c0 20 d8 12 be ae 1c 1d be a2 b7 ed 3c 0f fa 2c be
       -0.14340258 -0.15342972 0.029018227 -0.16892265
0000d0 80 cb 33 bd 63 f2 00 3d 6b db e2 bd 2e 9e a6 bc
       -0.043895245 0.031481158 -0.11077007 -0.020339098
0000e0 d7 57 97 bc 25 a1 d8 bd b3 43 d3 3b c6 a8 e6 bd
       -0.018474502 -0.10577611 0.0064472794 -0.1126266
0000f0 b7 53 6e bc 52 36 b8 3d b2 7b ad 3d 77 80 a3 bc
       -0.014546326 0.08994736 0.08470859 -0.019958718
000100 21 83 7a be 22 16 cb be 49 04 80 3e 5c 99 b4 3d
       -0.24464084 -0.39665323 0.2500327 0.088183135
000110 c2 62 b9 bd f6 1b b1 bd f6 e3 a7 3e d6 01 81 3d
       -0.0905204 -0.08647911 0.32791108 0.06299178
000120 19 66 18 be 4c f7 2c be aa 04 bc 3d a5 24 9e bd
       -0.14882697 -0.16891211 0.09180577 -0.07721833
000130 23 80 fd bd 8f 09 28 3e 3e c3 93 3e 56 50 f9 3d
       -0.12377956 0.16409896 0.28859895 0.12173526
000140 33 29 43 be a6 3d 36 bf a0 2f 28 3d 97 51 0a be
       -0.19058685 -0.7118782 0.041061044 -0.13507687
000150 ab 5c 10 3e 12 61 fc bd 04 d3 13 bb b9 67 9b bd
       0.1409785 -0.12323202 -0.0022556195 -0.07588143
000160 25 47 cc 3e 6d ec e6 3d 7a 76 9e 3d e8 af 49 bd
       0.3989803 0.112755634 0.07737441 -0.049240023
000170 af 36 e7 be eb 9b 77 be f3 91 68 be 5b 7e 3c be
       -0.45158908 -0.24180572 -0.22711925 -0.18407576
000180 ca b1 11 bd 9f 10 a3 be e4 47 9c 3c 5a 32 98 be
       -0.035569943 -0.31848618 0.019077249 -0.29725915
000190 f1 e9 22 3d 68 86 11 be 16 44 06 3e 0a eb e1 3d
       0.039773885 -0.14211428 0.1311191 0.11031158
0001a0 1e bc 5e bc 38 41 71 3e 7f 3e 9b bd dd c9 66 bd
       -0.013594655 0.23560035 -0.075802796 -0.056344856
0001b0 cd ef d3 3d b0 b9 9b 3d 1f 0e 1d bf ea e9 ac be
       0.10348473 0.076037765 -0.6134967 -0.33772212
0001c0 d3 d9 91 bd 3e d7 fc be 49 31 eb 3d 4b dd ef be
       -0.07121625 -0.49382967 0.1148401 -0.4684852
0001d0 66 37 15 bf 3d 00 a4 be ad 1d 50 be 3c 05 d3 bc
       -0.58287656 -0.32031432 -0.2032382 -0.025759332
0001e0 dc 2e 18 3e 66 62 5a bc 73 e9 e2 bd 87 0e 9e be
       0.14861625 -0.013329124 -0.11079683 -0.30870458
0001f0 99 52 77 3e 2a cb 67 be 9b f6 d5 be b4 7f c1 be
       0.24152602 -0.22636095 -0.41789708 -0.37792742
000200 cc ea c8 be 99 bf 71 3d db 89 a0 3c 96 97 05 bf
       -0.39241636 0.059020612 0.019596985 -0.52184427
000210 f5 f3 36 bd 98 bf b8 3e d2 9b 4e 3d 6f a3 dd bc
       -0.04466625 0.36083674 0.05044157 -0.02705547
000220 ab e3 40 be e7 dc 6b be fa b3 b9 3e 88 67 1d 3e
       -0.18836848 -0.23033486 0.36270124 0.15371525
000230 8c 30 57 3e 97 b8 8e 3d 59 cd b3 3d 4c dd b0 bd
       0.21014613 0.069688015 0.08779401 -0.08635959
000240 c9 13 80 be 7f 31 91 be 80 44 11 be 24 41 fe be
       -0.25015095 -0.28358075 -0.14186287 -0.49659073
000250 a8 05 26 bf 97 2f 13 be 58 03 6a 3e 8f fc 84 3e
       -0.6485238 -0.14373623 0.22852838 0.25973937
000260 6e 1a 2e 3e c5 ba c0 3d e5 8a af 3e e1 df 3d be
       0.1700227 0.094106235 0.34285656 -0.18542434
000270 97 0b 01 be 09 44 db bc 79 21 92 bd 2c 0c bb bd
       -0.12602077 -0.02676584 -0.07135291 -0.09133181
000280 3e 6d b1 bd d7 4e 24 be c6 39 09 3c 40 50 53 3d
       -0.086634144 -0.160457 0.008375591 0.051590204
000290 8b 73 e8 3c 39 5a ce 3d 2c e0 5a be 13 5c 4b be
       0.028375408 0.10075802 -0.21374577 -0.19859342
0002a0 de 53 c9 3d d4 33 f6 3c 40 84 1e 3f 30 24 57 3e
       0.098304495 0.03005401 0.6192055 0.21009898
0002b0 3a 55 c3 be fe 09 e2 bd 1b 12 53 bd 7a e0 37 3d
       -0.3815096 -0.11037062 -0.05153094 0.044891812
0002c0 0f 76 fb bd 68 0f 5c be 64 48 a1 3e 90 a9 72 3d
       -0.12278377 -0.21490252 0.31500542 0.05924374
0002d0 0f da 00 bf 06 41 ed be 83 2d 9d be c6 e0 f5 3d
       -0.5033273 -0.4633867 -0.30698785 0.12005763
0002e0 df a7 92 be dc 27 a4 bd 77 a5 4f 3e 61 4f 22 be
       -0.286437 -0.08015415 0.20277964 -0.15850593
0002f0 fd a0 55 b9 35 bc bb be 50 33 44 3d d8 2b 0d 3e
       -0.00020373236 -0.36667028 0.047900498 0.13786256
000300 49 16 68 bd 52 27 a9 3e 30 17 5f be e2 99 c9 3d
       -0.056661878 0.33037812 -0.21786189 0.09843804
000310 4b 05 0d 3e 1e f6 18 bf d4 bb ef bd 18 b4 af be
       0.1377155 -0.59750545 -0.11705747 -0.34317088
000320 7c c9 9c bd b0 31 bd 3b 02 4b 86 bc f3 54 4f bd
       -0.076556176 0.0057737455 -0.016393188 -0.050618123
000330 fe c0 89 3e ee 43 2a be 48 72 a5 3b a9 c9 5e be
       0.26905054 -0.16627476 0.005049024 -0.21756615
000340 db f5 14 3d c5 58 9f bd af 89 4f be 67 2b 18 3d
       0.03636728 -0.07780603 -0.20267366 0.037150767
000350 6c 58 bf bd d0 9f a1 bd a3 ad 0d bd 8d ee 40 be
       -0.09343037 -0.0789181 -0.03458942 -0.18841
000360 23 1a fb 3e f0 10 0c 3e 30 66 87 bd 66 17 68 bd
       0.49043378 0.13678336 -0.066112876 -0.05666294
000370 6b 13 72 3e fd 6f 20 bd 65 7a e5 3e c5 e5 35 be
       0.2364022 -0.0391693 0.44819942 -0.17763431
000380 de 84 ff bc 3f e8 22 bd 4b ff a5 3b db 98 05 3d
       -0.031191286 -0.03977227 0.0050658337 0.032616477
000390 3d c4 85 be e4 4c e4 bd 34 a5 3e bf b1 49 8a 3e
       -0.2612628 -0.11147478 -0.7447083 0.27009347
0003a0 59 8a bf be e2 5b 7f 3d be 06 4b be 70 ce a2 3e
       -0.37410238 0.062343486 -0.1982679 0.31798124
0003b0 01 4d 38 bd c7 73 91 be d6 88 c6 bd 8a a0 ff be
       -0.04499531 -0.28408644 -0.09694068 -0.4992717
0003c0 2b 35 a4 be a7 fb 46 bd 5b b1 29 be 5c 58 6d be
       -0.32071814 -0.048579838 -0.16571562 -0.23178238
0003d0 4c 82 c1 be a2 4d 38 3d 6b a0 27 be 31 9b 9e 3e
       -0.3779472 0.04499591 -0.16369788 0.30977777
0003e0 aa 5d f1 be ad 09 0f bf aa e1 92 3e a0 6e 07 3d
       -0.47141773 -0.5587414 0.28687793 0.033064485
0003f0 8e e3 e9 3c 82 8a 7b 3d 72 78 8e 3e 58 11 38 bf
       0.02855089 0.06141139 0.27826267 -0.71901464

fc1.bias f4 [128]
000000 ce 51 97 bd c9 a4 2a 3f e7 0c a2 bc c0 d1 1d 3f
       -0.0738865 0.6665769 -0.019781543 0.6164818
000010 63 f3 3a 40 ad a3 75 3d 79 a1 62 3f 5a c0 16 40
       2.9211051 0.059970547 0.8852764 2.3554902
000020 0e 9c 1e bd 2f 20 c3 bd ca 14 0e bf 03 77 22 bd
       -0.038723044 -0.09527623 -0.5550047 -0.03966428
000030 14 03 16 40 6d 8e a9 3e 5b 90 5f 3d 2f 20 07 3f
       2.3439379 0.33116475 0.054581027 0.52783483
000040 87 34 03 40 88 83 c6 3d ca e4 c5 3f 52 ce 15 be
       2.050081 0.09693056 1.5460446 -0.14629486
000050 9c 60 a3 3d 42 d1 a8 bb 8b bc 23 3e 2d f5 62 40
       0.07977411 -0.0051518986 0.15989892 3.5462143
000060 05 34 7c 3b 79 e8 c6 3e 90 4d ff bd 4c 2a 93 3f
       0.0038483154 0.38849238 -0.12465966 1.1497283
000070 17 b6 43 40 f3 10 10 be 29 bc af bc 3a a4 d5 3f
       3.057989 -0.14068966 -0.021452026 1.6690743
000080 51 5e 8c 3b b7 a2 b8 bd 5e c5 14 40 83 f0 9d bc
       0.0042837043 -0.090154104 2.3245463 -0.019279724
000090 e2 e5 8f 3e 74 22 2f 3f f2 72 04 bd 2b 0f ec 3e
       0.28105074 0.68411946 -0.032336183 0.46105322
0000a0 9f c4 81 3f 8b 0f 7f be 81 cb dc be 5c e3 83 3f
       1.0138129 -0.24908273 -0.4312401 1.030376
0000b0 a4 4e 20 bd 11 c4 49 40 b8 4a 00 3d 04 a2 0c bd
       -0.039137498 3.152592 0.031321257 -0.034334198
0000c0 e0 fd b9 3f 89 ee 7b bc 3c 4a 12 bd be 65 ab bd
       1.4530602 -0.015376695 -0.035715327 -0.08369015
0000d0 4d 6c 52 3e 4f d8 7c 3e be 30 01 3f 03 ae e7 3e
       0.20549126 0.2469189 0.50465 0.45249948
0000e0 a9 df 3d bd 73 37 0c 40 8e 70 2e bb fa ac 53 bd
       -0.046355877 2.1908844 -0.002661738 -0.051678635
0000f0 c0 02 a5 40 ee 03 76 bd 01 e4 9d 3d 41 3a 08 3f
       5.1565857 -0.06006234 0.07709504 0.5321389
000100 7f 8f 42 40 a4 7c 5f 3e 0f fa 7f bc d2 71 2b 3f
       3.0400083 0.2182489 -0.015623583 0.6697055
000110 0b f7 e2 3f de 05 aa bc 62 03 0c 41 0c ef 59 be
       1.7731642 -0.02075475 8.750826 -0.21282595
000120 65 ee 43 bd 7d 9d 8b 3f 33 64 3c bd 5d 59 e1 3f
       -0.047834773 1.0907437 -0.045993995 1.7605397
000130 0d 4d 85 bd 83 20 c1 bd 65 b9 0a 40 53 9c c5 bd
       -0.06508837 -0.09430029 2.1675656 -0.09648957
000140 3a 0a ca bd 6f aa 48 bb 1b 73 b2 3c 30 ae 0d bf
       -0.09865232 -0.0030619164 0.021783402 -0.55343914
000150 41 da d0 bd df 85 e6 3f ed 88 a5 3e c2 20 e7 40
       -0.10197879 1.8009604 0.3233103 7.2227488
000160 5c 91 1e bd 3b 36 1b 40 09 42 de 3f 33 ed ce 40
       -0.038712844 2.425185 1.7363902 6.466455
000170 26 d0 3f 40 f6 31 e7 3f f7 34 b5 bd b8 6d 11 bd
       2.9970794 1.8062122 -0.08847993 -0.035505027
000180 f5 f0 f0 40 75 d4 1f bd 5d dd 3d 3e 35 96 ce 3f
       7.5294137 -0.039020974 0.18541475 1.613959
000190 42 29 84 3d ee a0 6e 3f b5 31 b8 bc 7d 6b b6 be
       0.06453182 0.9321431 -0.02248464 -0.35628882
0001a0 32 84 b9 bf 4b 49 eb 3e 32 7b 06 bd 16 7b 7f 3f
       -1.4493468 0.45954356 -0.032832332 0.9979719
0001b0 fe a2 f9 bc 7c 28 58 bd 91 4c e6 bc ff 3f f9 bc
       -0.030473229 -0.052772984 -0.028112682 -0.030426024
0001c0 7a 23 83 40 c2 e9 ac bc 4b 2e 9a bd fb 38 9f bd
       4.0980806 -0.021107558 -0.07528361 -0.0777454
0001d0 16 37 b7 3d 75 2a 9e 40 03 d4 f3 bd 02 72 a3 3e
       0.08946054 4.9426827 -0.119056724 0.3192292
0001e0 53 b5 21 bd 46 9b 29 40 e4 51 0e 3d 64 83 37 3f
       -0.039479565 2.6501021 0.034746066 0.7168486
0001f0 4a e0 04 40 7b 5f ac 40 dd 7d 9c 40 d2 67 f7 40
       2.0761895 5.3866553 4.890364 7.7314234

fc2.weight f4 [4, 128]
000000 be 68 c6 bd 12 05 ae 3d 20 7f 3c 3d ee 29 fd 3e
       -0.09687947 0.08497061 0.046019673 0.49446052
000010 3d 33 65 be cc d3 13 be 7a b1 0d 3e 10 46 2d be
       -0.22382827 -0.14436263 0.13837233 -0.16921258
000020 5b d9 d7 bd f7 cb 84 bc 36 41 ce 3d 7b d5 a5 bd
       -0.10539504 -0.01621054 0.10071032 -0.08097359
000030 8e e0 11 3d a1 20 15 bd 95 b9 06 3e d0 55 0e bd
       0.035614543 -0.03640807 0.13156731 -0.034749806
000040 bb 29 2b 3f 65 70 b5 3c ae f9 c1 3e f0 7f cf 3c
       0.6686055 0.02214832 0.37885803 0.02532956
000050 0a 6b b7 3c 35 72 46 3d 63 43 23 3c 23 15 38 3f
       0.022389907 0.04844876 0.009964797 0.7190725
000060 2b 4d 2f bd e6 74 f2 3e 91 ec 3c 3f 02 0a 70 3d
       -0.042798202 0.4735481 0.7379847 0.058603294
000070 9b d0 bb be aa 85 35 3c 3b 94 24 3b b4 a3 b7 3e
       -0.3668259 0.011079231 0.0025112766 0.35867083
000080 bb c9 af bc bc 72 f6 3d d9 bb d4 3e da 21 08 bc
       -0.021458497 0.120336026 0.41549566 -0.008308852
000090 8d a7 a5 3e f7 99 cf be eb 33 a6 3a a5 38 08 bd
       0.32354394 -0.40547153 0.0012680268 -0.033257145
0000a0 1b 98 c4 3d c1 46 51 be 79 ac 07 3d 2a fa 25 3e
       0.09599324 -0.20437147 0.033123467 0.16208711
0000b0 74 2e bd 3c 03 11 0b 3f 19 eb de 3b c0 03 e4 bc
       0.02309344 0.5432283 0.006802928 -0.02783382
0000c0 84 31 b1 3c ca a4 6d 3d 5a 99 51 3d 4a 3c 1b 3e
       0.021630056 0.058018483 0.051171638 0.15159717
0000d0 4f fc 78 be 6b d3 c6 3e be 2c be 3e f4 dd c1 3e
       -0.24314998 0.38833174 0.3714351 0.3786465
0000e0 94 90 9b 3c 40 15 b1 3e 80 2f cc 3c 2c 96 48 3e
       0.018989839 0.34586525 0.024924994 0.19588536
0000f0 2e c7 87 be 16 87 95 bd 58 d9 f5 3d 74 35 d6 3e
       -0.2651915 -0.07301156 0.12004346 0.41837656
000100 e9 a2 af 3e f4 b2 7f bd 75 d4 74 bc 81 d7 66 3e
       0.34303978 -0.062426522 -0.014943232 0.22543146
000110 c0 b5 1d bd d1 40 59 3d d6 1a 12 be a6 9d 8f be
       -0.03850341 0.05304033 -0.1426805 -0.28049964
000120 6e ab 6c 3c 78 f1 89 3e 6e 8b 1b 3d d5 01 58 3e
       0.014445169 0.2694204 0.037974767 0.21094449
000130 71 14 0f 3d 3b b4 e1 3d 74 65 1b 3f 52 78 87 3c
       0.034931604 0.11020704 0.6070168 0.016536865
000140 40 97 6b 3c 96 99 81 bd 69 47 e0 bc 60 6c 27 bd
       0.0143793225 -0.06328122 -0.027377801 -0.04087484
000150 5f 7a 56 3a 29 e5 a9 3e 81 ca af bc 2e f2 be bd
       0.0008181687 0.33182648 -0.021458866 -0.09323536
000160 a9 ca f8 bc a7 11 a6 be 03 07 9d 3e 3b b5 2a 3c
       -0.030370073 -0.32435343 0.30669412 0.010419185
000170 bc 09 6d 3e 04 c9 a1 3d 62 d6 5b bc 28 81 0f 3c
       0.23148245 0.07899669 -0.013417812 0.008758821
000180 2d 24 19 be d9 8f c4 bc d2 75 5f 3e 9b 3a 93 3d
       -0.14955206 -0.023994373 0.21822289 0.071889125
000190 c6 df 35 3d 8c 85 1a bf c8 9d 81 3d 27 b7 2d 3e
       0.04440286 -0.60360026 0.063289225 0.16964398
0001a0 1c 02 c2 3d 47 b2 06 bf f6 4f dc 3c d3 38 cb be
       0.094730586 -0.5261578 0.026893597 -0.3969179
0001b0 d8 b6 04 bc 78 8c 98 3d 7d d0 52 bc c8 9d 39 3d
       -0.008100234 0.07448667 -0.01286709 0.045316488
0001c0 7f 4a a3 3e f1 8d 4a bd d1 08 ec 3c 77 ab 09 3d
       0.31892774 -0.049451772 0.028812798 0.033610787
0001d0 2a 86 f6 3e 69 a8 a5 bc 81 e7 66 bc 9c 0a 9f 3e
       0.48149234 -0.020221906 -0.014093281 0.31062782
0001e0 eb 3e 15 bc 9f 17 64 3e ae 06 8c bd c0 d6 6c be
       -0.009109239 0.22274636 -0.068372115 -0.23128796
0001f0 17 1b 81 be 3e ae f8 3c 6d 95 98 bd 18 1e 0b 3e
       -0.2521598 0.030356523 -0.07450376 0.13585699
000200 fb 7d 3b bd fa 6c cc 3e 73 bd 9d bd c1 0b 5c 3e
       -0.04577444 0.39926893 -0.0770215 0.21488859
000210 d6 12 17 bb aa 4f e5 3d 40 2a 09 bf ef 3a 2d be
       -0.0023051999 0.11196835 -0.53580093 -0.16917013
000220 c0 4e f6 3b 6e 10 61 3c 80 2a ae 3e 5d f3 a5 3d
       0.007516712 0.013736827 0.340168 0.081030585
000230 c4 68 bd be b8 f2 a6 be e6 6a e8 3d fe dd e7 bd
       -0.36993992 -0.32607055 0.11348514 -0.113216385
000240 94 07 b8 3e f2 38 9b bc 7b ce dc be 93 78 8e bc
       0.35943282 -0.018948052 -0.43126282 -0.017391479
000250 61 4c 2b 3d 75 db 08 3d 68 12 1f bc 97 a6 c2 3c
       0.041820887 0.033412416 -0.009708978 0.023761077
000260 e8 19 6d ba 1f 5e b8 be 2d 5a fe 3e 48 36 f6 be
       -0.0009044693 -0.3600931 0.49678174 -0.48088288
000270 c9 4a b9 3c 2e 0b 3a bd 97 c3 c6 3d 2c c4 fd 3d
       0.022618668 -0.045420818 0.097052746 0.123909324
000280 76 be 7e 3c 43 0a fa bc 2d 34 80 3e 0f 12 4d bd
       0.015548339 -0.030522471 0.25039807 -0.05006605
000290 d3 98 1e bf 74 11 13 be 43 89 ba bc ee d6 f8 3d
       -0.6195194 -0.14362127 -0.02277053 0.121503696
0002a0 d6 7a dd 3e e0 da c8 be 8b 25 87 3e fa d5 3c 3c
       0.4325778 -0.39229488 0.2639583 0.011525625
0002b0 a7 2b f2 3c ae 72 ff 3e 1d a0 18 3d b9 2b 86 bd
       0.02956183 0.4989218 0.03726207 -0.06551308
0002c0 eb dc 65 be e6 c5 78 3d 00 d7 c5 3a 44 dc bf 3c
       -0.22447555 0.060735606 0.0015093982 0.02342046
0002d0 dd 02 5e be 1e ff 8e be 4f 67 a3 be 32 36 8b 3e
       -0.2168078 -0.27929014 -0.31914756 0.27189785
0002e0 df 7d 25 3d 03 d7 34 3e 4b 56 21 3c cd 72 c8 3d
       0.040403243 0.17660145 0.009847234 0.097875215
0002f0 5c 4b 30 3e d0 cd cd bb 7e a7 2c 3d f4 58 42 bd
       0.17216247 -0.0062806383 0.04215192 -0.047448114
000300 7c 78 75 3d 58 38 33 3e 73 ad 0e 3d 6a 9d 4a 3e
       0.059929356 0.17501962 0.034833383 0.19786611
000310 e6 47 0d 3f a7 d6 f5 3c dd 54 2a be cc d0 6e be
       0.55187833 0.03000958 -0.16633935 -0.23321837
000320 bf 1d 3d 3c 25 ee ed bd c9 29 c5 bc 0c fa 17 be
       0.011542737 -0.11617688 -0.024067776 -0.14841479
000330 3d e8 bc 3d ad ca 20 3e be 8a 8b be 1e b1 88 3d
       0.092239834 0.15702315 -0.2725429 0.066744074
000340 7e 37 4b bd d9 a9 1f 3d e5 db 50 bd f8 92 d8 3e
       -0.04961347 0.03898034 -0.050990958 0.42299628
000350 f9 ef c9 bd e0 5e 20 3f da af 53 3f 46 5f d7 3e
       -0.09860224 0.6264477 0.82690203 0.42064875
000360 a8 95 08 bd 05 91 83 bc e4 33 fe 3e 1b fd de 3e
       -0.03334585 -0.016060362 0.49648964 0.4355248
000370 61 9b 94 be c9 da c0 3e 94 d6 ee 3c 3c 48 b0 3c
       -0.29024795 0.3766692 0.029155053 0.021518819
000380 9d 0c dd bc b9 16 84 3d a6 6b d0 be 69 a6 f3 be
       -0.026983554 0.064496465 -0.4070713 -0.47587898
000390 26 fe 16 3d c2 fe cd be e9 e2 5d 3d 6e 41 2a bd
       0.03686347 -0.40233427 0.054171477 -0.041566305
0003a0 7b e6 d5 3e af 4a 28 bf 25 91 a0 3c 86 7d 93 3c
       0.41777405 -0.6573896 0.01960046 0.01800419
0003b0 a5 31 40 3d 1b 41 5d bd c4 99 ce 3d 18 b6 95 bd
       0.046922345 -0.054017168 0.10087922 -0.07310122
0003c0 4b 3a 3e bf 08 45 34 3d d9 e5 1b 3e ef 86 17 bd
       -0.743077 0.044011146 0.15224399 -0.036993917
0003d0 88 36 c1 be d8 40 0e bf a8 d2 4e 3d c9 fc 1c 3e
       -0.37736917 -0.55567694 0.050493866 0.15330805
0003e0 30 ec 9c bc 45 cd f0 3e 51 3b 77 3d df da a1 be
       -0.019155592 0.47031608 0.060359303 -0.31612298
0003f0 57 13 62 be c9 b5 90 3e 69 ab 6d 3e ae 63 c9 3e
       -0.2207769 0.2826369 0.23209919 0.39333862

fc2.bias f4 [4]
000000 74 19 75 c2 a8 0f 80 c2 2b 62 88 c2 01 48 77 c2
       -61.274857 -64.03058 -68.191734 -61.820316
